porject/models/actor.pth (torch, 519476 bytes, 6 tensors)

fc1.weight f4 [400, 17]
0.44574934 0.64205843 -1.3770097 -0.2838968 -0.87826824 -0.66862196 -1.7955133 -0.74168867
-0.30796236 -0.23165233 0.7689301 -0.14530763 -0.07082087 -0.05745173 0.19977628 -0.050845906
-0.10971539 0.47113043 0.01190204 -0.5623332 1.1858523 -0.12929742 -1.4712718 -0.41400585
-0.18767129 0.29817417 0.12803033 0.45994246 -0.10690274 0.19188966 0.026966881 -0.08822304
0.15892854 -0.03852675 0.46362916 -0.66849494 -0.90401345 0.43961698 -0.05360438 -0.5146416
-1.2752802 -0.31974468 0.23298986 0.04541689 0.5798233 -0.13733454 0.11827864 -0.08937648
0.23806705 -0.09952856 0.012014056 0.077234656 1.4194956 -0.9856068 -0.37115833 -0.7829138
-0.40983775 -0.1215058 -0.37513095 -0.52204865 0.50642127 0.5398916 -0.107396185 -0.064669006
0.17519575 0.19914137 0.015835775 -0.19704679 0.8650573 -1.53954 -0.614463 1.0679264
-0.120527595 -0.36298707 -0.32495525 -0.023150949 -0.29191783 0.10257664 -0.45985648 -0.46978116
-0.10753089 -0.18542781 -0.13175151 0.25500315 0.16569695 0.92358196 -0.69534737 -0.14632627
0.9505885 0.0012718049 -0.07846374 -0.57727885 -0.3412642 -0.172715 -0.0058609014 -0.2709846
0.22392026 -0.06560356 0.16891676 0.30930054 -0.15111244 -0.25771153 0.3842214 -0.10230661
-1.2466284 0.16547215 -0.4373811 -0.4934331 -1.3062844 -0.6428751 -0.49392322 -0.08837829
0.24508855 -0.14032066 -0.017268945 -0.15635951 0.049405657 0.10299906 -0.1445156 0.28299043
-0.61469346 -0.20413762 2.2410243 -0.093819655 -0.2876165 -0.14507174 -1.4881688 0.035726313
0.123025775 -0.08561516 0.43363383 -0.0043449244 -0.15393126 0.29663655 -0.16913456 0.0088822385
0.865065 0.012798256 -0.4721713 0.705094 -0.4679656 -0.46507382 -0.2627692 0.012700117
-0.24062005 0.04666988 -0.21277197 -0.10663297 0.29559487 0.016344609 0.19868204 -0.20554282
-0.0732327 0.6760961 -0.85500795 -0.7854483 -1.0758251 -0.08965429 0.06535066 -0.39498731
0.17010799 -0.84688693 0.5870324 0.6070638 -0.2884379 -0.15766016 0.19910519 0.0885634
-0.22150967 0.017317776 -0.39043507 2.134253 -1.0691266 0.57176876 -1.1381997 -0.113425866
-0.87847894 -0.04088977 0.07239354 0.1606694 0.31690675 -0.03491927 0.09952763 0.41318917
0.24651626 0.070833854 -0.06671464 0.45784435 -0.9926315 -0.8636945 0.08005571 -0.14105693
-0.39837974 -1.7914187 -0.4292825 -0.6159776 -0.16969289 0.72774947 -0.09856321 0.1716477
-0.027279126 0.3476264 -0.13172275 0.030063331 0.65663517 -1.5232022 -1.1501665 0.5466086
-0.0409024 -0.50771385 -0.00081491505 -0.048227325 -0.5345648 0.051379327 -0.6506177 -0.4416797
-0.14904098 -0.18707213 -0.15903737 0.21864466 0.10403492 0.38991153 -0.8982266 -0.27518788
1.6192864 -0.118599236 -0.5939285 -0.6555738 -0.80473715 0.04648923 -0.34828755 -0.38152775
0.103649154 -0.17960195 0.116125196 0.4792942 0.18896183 -0.1668965 0.44179082 0.46803176
-1.0275418 1.6928253 -0.4094843 -1.2622911 -1.0098491 -0.15166944 0.020283803 -0.11978804
-0.16249534 -0.06226406 0.37971833 -0.08293102 0.1764143 -0.023262177 0.09722052 0.6651153
00000000: 4239 e43e f15d 243f db41 b0bf ec5a 91be
00000010: 30d6 60bf cf2a 2bbf 61d3 e5bf 4fdf 3dbf
00000020: 3ead 9dbe 4536 6dbe 9ad8 443f 86cb 14be
00000030: 880a 91bd 8152 6bbd 2792 4c3e cc43 50bd
00000040: 76b2 e0bd 0238 f13e c600 433c 12f5 0fbf
00000050: 02ca 973f 8b66 04be a252 bcbf 93f8 d3be
00000060: e72c 40be 49aa 983e 621a 033e 947d eb3e
00000070: d3ef dabd b97e 443e a6e9 dc3c 48ae b4bd
00000080: 2abe 223e 3ace 1dbd cd60 ed3e 7c22 2bbf
00000090: 6d6d 67bf 7a15 e13e 4490 5bbd 8dbf 03bf
000000a0: 623c a3bf 93b5 a3be e594 6e3e 1007 3a3d
000000b0: 4d6f 143f 6da1 0cbe 123c f23d 040b b7bd
000000c0: d9c7 733e a1d5 cbbd 9ad6 443c 342d 9e3d
000000d0: 08b2 b53f ba50 7cbf 7708 bebe 0a6d 48bf
000000e0: 41d6 d1be 08d8 f8bd 2a11 c0be fba4 05bf
000000f0: d3a4 013f 5636 0a3f 88f2 dbbd 2f71 84bd
00000100: 8466 333e b7eb 4b3e 07ba 813c a2c6 49be
00000110: 6574 5d3f a60f c5bf 724d 1dbf d0b1 883f
00000120: 2cd7 f6bd 71d9 b9be 8960 a6be 0fa7 bdbc
00000130: 4176 95be b413 d23d 4f72 ebbe 2887 f0be
00000140: 2839 dcbd cae0 3dbe dee9 06be c68f 823e
00000150: 76ac 293e de6f 6c3f 4902 32bf 8ed6 15be
00000160: c559 733f b1b2 a63a 99b1 a0bd 8cc8 13bf
00000170: 2eba aebe 33dc 30be ce0c c0bb 7ebe 8abe
00000180: 5a4b 653e 295b 86bd 84f8 2c3e a45c 9e3e
00000190: 38bd 1abe c4f2 83be abb8 c43e 2186 d1bd
000001a0: 8591 9fbf 8871 293e 6af0 dfbe 43a3 fcbe
000001b0: 5434 a7bf 7693 24bf 81e3 fcbe adff b4bd
000001c0: 7ef8 7a3e 38b0 0fbe 9a77 8dbc b51c 20be
000001d0: 965d 4a3d 2cf1 d23d e6fb 13be 1fe4 903e
000001e0: 8d5c 1dbf 7409 51be f16c 0f40 8524 c0bd
000001f0: 7842 93be b08d 14be 517c bebf c155 123d
00000200: f0f4 fb3d 0057 afbd 4105 de3e de5f 8ebb
00000210: 28a0 1dbe bfe0 973e 9c31 2dbe cf86 113c
00000220: e674 5d3f c7af 513c 70c0 f1be 0a81 343f
00000230: 3099 efbe 281e eebe af89 86be 2714 503c
00000240: 1a65 76be eb28 3f3d e5e0 59be 6362 dabd
00000250: 3658 973e 21e5 853c 4e73 4b3e d179 52be
00000260: 07fb 95bd a214 2d3f cde1 5abf 2413 49bf
00000270: a3b4 89bf ab9c b7bd 91d6 853d c73b cabe
00000280: ca30 2e3e 95cd 58bf c147 163f 8868 1b3f
00000290: 22ae 93be aa71 21be 3be2 4b3e ba60 b53d
000002a0: 6ed3 62be 02de 8d3c 1be7 c7be 9a97 0840
000002b0: 24d9 88bf 705f 123f 87b0 91bf d24b e8bd
000002c0: ffe3 60bf 087c 27bd 1043 943d 8586 243e
000002d0: 9a41 a23e 8207 0fbd 24d5 cb3d 888d d33e
000002e0: c26e 7c3e 5711 913d afa1 88bd 936a ea3e
000002f0: 191d 7ebf 151b 5dbf 40f4 a33d 3a71 10be
00000300: 6ef8 cbbe 354d e5bf eaca dbbe b5b0 1dbf
00000310: f9c3 2dbe ca4d 3a3f 82db c9bd 6ac4 2f3e
00000320: 7978 dfbc 16fc b13e 54e2 06be 6047 f63c
00000330: 3e19 283f 4af8 c2bf a838 93bf 8bee 0b3f
00000340: 4689 27bd 89f9 01bf 06a0 55ba 048a 45bd
00000350: 3dd9 08bf 2173 523d e28e 26bf d723 e2be
00000360: 339e 18be d68f 3fbe b1da 22be 63e4 5f3e
00000370: 4310 d53d 7ca2 c73e 2ef2 65bf 6de5 8cbe
00000380: c744 cf3f 28e4 f2bd b30b 18bf afd3 27bf
00000390: 4103 4ebf 7e6b 3e3d bf52 b2be 9b57 c3be
000003a0: 0246 d43d 93e9 37be 0cd3 ed3d 0d66 f53e
000003b0: 367f 413e ebe6 2abe 6832 e23e dca1 ef3e
000003c0: 7d86 83bf 80ae d83f eda7 d1be c192 a1bf
000003d0: bc42 81bf 3c4f 1bbe 382a a63c 6f53 f5bd
000003e0: 2e65 26be 9908 7fbd 716a c23e bdd7 a9bd
000003f0: f3a5 343e 5290 bebc 8d1b c73d ff44 2a3f

fc1.bias f4 [400]
-0.6043865 -0.42927042 -0.8364725 -0.6447417 -0.64966553 -0.91428846 -0.7250268 -0.30119058
-1.0461786 -0.6564644 0.064483255 -0.45458925 -0.4715811 -0.39482015 -0.5127898 -0.54898804
-0.95899075 -0.5374112 -0.9786337 -0.75105685 -0.72671753 -0.19110878 -0.26815876 -1.0090083
-0.52259773 -0.8253132 -0.61158913 -0.4047417 -0.034470506 -0.75644404 -0.7797724 -0.4349759
-0.73720926 -0.78304404 -0.06041317 -0.7030728 -0.6337705 -0.6591789 -0.932597 -0.26987594
0.16567492 0.097597815 -0.86835647 0.04168522 -0.2966398 -0.6502108 -1.0227247 -0.2418267
-0.86739784 0.036897052 -0.74246216 -0.62780493 -0.9506083 -0.3204711 -0.6217464 -0.88140595
-0.615174 -0.62109435 -0.47793636 -0.7298314 -0.76282555 -0.6628866 -0.87833375 -0.63931435
-0.41310892 -0.7699144 -0.7427503 -0.4207903 -0.7753436 -0.009838297 -0.93427724 -0.20648576
-0.09287538 -0.87637043 -0.9572502 -0.29918808 -0.081285216 -0.5964717 -0.2662675 -1.1720093
-0.78077096 0.19513105 -0.18502383 -0.5247707 -0.6446987 -0.342396 -0.55308264 -0.6783656
-0.4399393 -0.30341795 -0.5318104 -0.4823992 -0.52843064 -0.71381944 -0.412207 -0.83570534
0.41297525 -0.6181211 -0.40857652 0.13351189 -0.5873094 -0.2984543 -0.6087026 -0.26679403
-0.6998868 0.25031626 -0.45792153 0.18229678 -0.92170227 -0.3681316 -0.7132188 -0.6721893
-0.4513055 -0.48754582 -0.73348635 -0.8236144 -0.15291566 -0.9698905 -0.69873893 -0.32944164
-0.46499106 -0.66227627 -0.61692166 -1.0508528 -0.5132663 -0.6433089 0.38547394 0.17036377
-0.37631446 -0.3764897 -0.9816379 -0.6929953 -0.103360966 -0.7068061 -0.038756024 -0.39572465
-0.5993436 -0.9100596 -0.28330943 -0.6327148 -0.039409705 -0.41914004 0.2240897 -0.24274704
-0.6240583 -0.60703963 -0.82528037 -0.7144488 -0.52237135 -0.7250278 -0.5210988 -0.3943575
-0.80134535 -0.08460372 -0.97347665 -0.24262993 -0.39477113 -0.34304795 -1.0907115 -0.7567909
-0.7860939 0.005106905 -0.64802825 -0.3797413 -0.5819158 -0.5393095 -0.30851346 -0.11421597
-0.8453098 -0.30219755 -0.9646246 -0.43835312 -0.61173576 -0.10185104 -0.7341382 -0.24628685
-0.2666128 -0.74254215 -0.5756186 -0.7452925 -0.64707476 -0.70868975 -0.122612014 0.10245159
-0.6229674 -0.513225 -0.5274272 -0.6379504 -0.6147654 -0.47123137 -0.58819556 -0.60370076
-0.8357091 -0.59767365 -0.34889698 -0.46158233 -0.39831892 -0.5961524 -0.3058959 -0.8703365
-0.01935466 -0.74108344 -0.8690979 0.22263779 -0.39551416 -0.5119981 -0.034850612 -0.0155691
-0.097116515 -0.51936316 -0.94357216 -0.5126333 -0.6150371 -0.8060591 -0.904308 -0.17354201
-0.86295855 -0.07118291 -0.7623263 -0.4720141 -0.59535605 -0.4990553 -0.83588266 -0.6151482
-0.5454779 -0.6283675 0.36361516 -0.59042054 -0.92934996 -0.7783734 -0.24094781 -0.21922903
-0.4795385 -0.91049314 -0.55599487 -0.6931411 -0.6354576 -0.13251829 -0.6651997 -0.93552244
-0.18776366 -0.12742674 -0.88466066 -0.8780685 -0.9741576 -0.45144397 -0.38198137 -0.63758063
-0.74371207 -0.18879493 -0.6802555 -0.70150274 -0.5811855 -0.73887825 -0.4880713 -0.109091856
00000000: 13b9 1abf 55c9 dbbe 1023 56bf cb0d 25bf
00000010: 7b50 26bf cf0e 6abf 5b9b 39bf a735 9abe
00000020: 2ee9 85bf 0d0e 28bf cc0f 843d ecbf e8be
00000030: 1473 f1be de25 cabe 3146 03bf 7b8a 0cbf
00000040: 6b80 75bf c893 09bf bd87 7abf 4345 40bf
00000050: 290a 3abf 05b2 43be 1b4c 89be 2f27 81bf
00000060: f7c8 05bf ba47 53bf 1b91 1cbf 4e3a cfbe
00000070: f230 0dbd 51a6 41bf 2a9f 47bf 29b5 debe
00000080: bfb9 3cbf 9375 48bf cd73 77bd 94fc 33bf
00000090: c93e 22bf f3bf 28bf adbe 6ebf 2e2d 8abe
000000a0: b0a6 293e 5de1 c73d 9c4c 5ebf 1fbe 2a3d
000000b0: 2ce1 97be 3774 26bf a5e8 82bf 6ba1 77be
000000c0: c90d 5ebf 5d21 173d 0012 3ebf d3b7 20bf
000000d0: 115b 73bf ca14 a4be c62a 1fbf d2a3 61bf
000000e0: 0b7c 1dbf 0a00 1fbf 13b4 f4be 3bd6 3abf
000000f0: 8948 43bf f0b2 29bf 7bda 60bf 1baa 23bf
00000100: 0383 d3be 1c19 45bf e224 3ebf d471 d7be
00000110: eb7c 46bf cf30 21bc cb2c 6fbf 0171 53be
00000120: 7235 bebd d059 60bf 590e 75bf 2e2f 99be
00000130: dd78 a6bd 5fb2 18bf 3754 88be 6704 96bf
00000140: 9be0 47bf 6fd0 473e e376 3dbe 5f57 06bf
00000150: f90a 25bf 874e afbe d396 0dbf 5ea9 2dbf
00000160: b93f e1be 9959 9bbe ba24 08bf 07fd f6be
00000170: 3b47 07bf dfbc 36bf cc0c d3be c9f0 55bf
00000180: 7e71 d33e 2f3d 1ebf f130 d1be 57b7 083e
00000190: e959 16bf 01cf 98be efd3 1bbf 3a99 88be
000001a0: c82b 33bf 7429 803e b174 eabe 02ac 3a3e
000001b0: aef4 6bbf bf7b bcbe 8295 36bf 9914 2cbf
000001c0: 8411 e7be 9b9f f9be c3c5 3bbf 65d8 52bf
000001d0: ec95 1cbe be4a 78bf 8ee0 32bf 93ac a8be
000001e0: 4f13 eebe f08a 29bf 94ee 1dbf 5882 86bf
000001f0: 6c65 03bf e4af 24bf d75c c53e d773 2e3e
00000200: 4aac c0be 42c3 c0be 9f4c 7bbf 2468 31bf
00000210: eaae d3bd 3ff1 34bf a3be 1ebd 6c9c cabe
00000220: 956e 19bf aaf9 68bf ef0d 91be 99f9 21bf
00000230: 126c 21bd 8699 d6be c577 653e ae92 78be
00000240: 49c2 1fbf f366 1bbf 9345 53bf 1ee6 36bf
00000250: 21ba 05bf 6c9b 39bf bb66 05bf 3ae9 c9be
00000260: f824 4dbf b744 adbd c435 79bf fb73 78be
00000270: 711f cabe fba3 afbe 6f9c 8bbf 0cbd 41bf
00000280: 733d 49bf d357 a73b 2ee5 25bf 746d c2be
00000290: 6ff8 14bf 3010 0abf 7af5 9dbe 10ea e9bd
000002a0: 3966 58bf a3b9 9abe a3f1 76bf d26f e0be
000002b0: b79a 1cbf 4797 d0bd 7bf0 3bbf 9f32 7cbe
000002c0: 7981 88be 3e17 3ebf be5b 13bf 7dcb 3ebf
000002d0: b1a6 25bf b16c 35bf 021c fbbd 24d2 d13d
000002e0: cb7a 1fbf b762 03bf 7805 07bf b850 23bf
000002f0: 4461 1dbf 3d45 f1be fc93 16bf 228c 1abf
00000300: 08f1 55bf 2401 19bf a0a2 b2be 8554 ecbe
00000310: 75f0 cbbe 729d 18bf 639e 9cbe 5fce 5ebf
00000320: aa8d 9ebc a5b7 3dbf 337d 5ebf 29fb 633e
00000330: d580 cabe 4f12 03bf 84bf 0ebd 8a15 7fbc
00000340: 06e5 c6bd fcf4 04bf f28d 71bf f03b 03bf
00000350: 1273 1dbf e459 4ebf bb80 67bf ffb4 31be
00000360: daea 5cbf 58c8 91bd d127 43bf d5ab f1be
00000370: 4169 18bf 2d84 ffbe 68fc 55bf 5a7a 1dbf
00000380: 71a4 0bbf b1dc 20bf c42b ba3e cd25 17bf
00000390: e1e9 6dbf 7b43 47bf 06bb 76be 937d 60be
000003a0: 1286 f5be 1416 69bf ae55 0ebf b271 31bf
000003b0: 59ad 22bf e0b2 07be 874a 2abf 667e 6fbf
000003c0: 1e45 40be 287c 02be 1f79 62bf 19c9 60bf
000003d0: 6462 79bf aa23 e7be 1093 c3be 7c38 23bf
000003e0: ea63 3ebf 7553 41be 3925 2ebf af95 33bf
000003f0: 93c8 14bf 2027 3dbf 7be4 f9be 8d6b dfbd

fc2.weight f4 [300, 400]
0.03261224 0.023408482 0.009196212 -0.07580265 -0.015270819 -0.028758382 0.015984982 -0.015306564
0.004413223 -0.050553307 -0.048395198 -0.050195396 -0.047009364 0.023025986 -0.01019554 0.0101017915
0.007635812 -0.034808625 0.034306295 -0.035176575 -0.030658482 -0.011370071 -0.0726625 0.012038811
0.050784588 -0.02785649 -0.024971573 -0.024849428 -0.01830375 -0.019325405 -0.01980548 -0.043222345
-0.0019030906 -0.013979569 -0.01150446 -0.016982764 -0.051529504 -0.01401575 0.043645635 -0.03498113
-0.030063665 -0.039419066 0.033140447 0.01796709 -0.032044522 -0.0059467694 0.015109344 0.0235557
0.012089831 0.019864833 -0.032287337 -0.0509064 0.012287178 0.0009637491 -0.016113676 -0.022226788
-0.020160595 -0.06779847 -0.010829136 -0.06295393 -0.047456637 0.010915045 0.005664877 -0.039577805
-0.018151732 -0.008438742 0.030271001 -0.049952343 -0.049053848 -0.040445812 -0.048365343 0.0070972773
0.03782302 0.0387116 0.045562036 -0.0034225192 -0.049062744 -0.052236654 -0.04007678 0.019552344
0.008336815 -0.051199786 0.032455802 -0.012623686 0.0032825223 -0.01037407 0.037814822 -0.02542348
0.02462841 -0.059367843 -0.040472824 0.0018581484 -0.028853765 -0.044605132 -0.048546087 0.022308186
-0.016080488 0.016005386 -0.0017641913 0.015341325 0.00666133 -0.045319274 -0.020160424 -0.046696067
0.017622968 -0.017014554 -0.023173101 -0.031560007 -0.05572483 0.011404761 -0.07125669 0.020106845
0.0070318254 -0.011896839 -0.062427033 -0.057291258 -0.05397132 -0.017572481 -0.040926278 0.00907249
0.011632138 0.016838422 0.0010063366 -0.0042570196 0.023296032 -0.008563087 0.022946091 -0.053563878
0.0404734 0.01600469 -0.01040975 -0.013833798 0.028972147 0.02065403 -0.015183841 -0.046392705
-0.037697177 -0.020038132 -0.050497167 -0.009825599 -0.05912639 -3.5889858e-05 -0.0010722923 -0.048121274
0.024543406 -0.017820524 -0.040063817 -0.052936286 0.023427853 0.015954036 0.026653975 -0.0014461209
0.047653433 -0.025180563 -0.0011182234 -0.03756174 -0.02092681 0.014178244 0.02363132 -0.07029134
0.026583346 0.004044624 0.004749459 -0.073684 -0.07246578 -0.010333149 -0.07407046 -0.067174695
-0.040498443 -0.020103501 0.018133014 -0.004657705 -0.047140986 0.047612883 -0.024070736 0.02361788
-0.05801896 0.004925035 0.038471624 0.021075087 -0.008754046 -0.02444679 0.0062526423 -0.02583609
-0.05762355 -0.05449955 -0.023760172 0.013627967 -0.04529382 0.03951899 0.024805218 0.023654202
-0.049963728 -0.029779082 0.011072845 0.01706981 0.021193674 -0.04050879 -0.04427365 0.015080563
7.686678e-05 0.00902087 -0.017911864 -0.052494332 -0.0033338163 -0.01175975 -0.079316795 -0.07718268
-0.022738114 -0.008115542 -0.018782433 -0.031852525 -0.025810182 -0.02441686 -0.016118445 -0.033828426
0.0143706305 0.04161187 -0.018208273 -0.036381025 -0.0640391 -0.0441167 0.0021357732 -0.044625282
0.0021284614 -0.03840916 -0.048845366 0.011385121 -0.05477665 -0.03468094 -0.04977135 -0.06913115
-0.060728703 -0.034528833 -0.07370319 -0.050895624 -0.05388601 -0.038295824 0.010168255 0.0010828553
-0.040974196 0.003637328 0.022146963 0.0056608054 0.01029874 -0.042910907 -0.009943908 0.00016207006
0.011107441 0.008073083 -0.0059691407 -0.054379173 -0.033824842 0.016979402 0.03112872 0.04190537
00000000: 6a94 053d 25c3 bf3c b5ab 163c 6b3e 9bbd
00000010: 7532 7abc b396 ebbc f0f2 823c 62c8 7abc
00000020: cc9c 903b fc10 4fbd 0b3a 46bd b099 4dbd
00000030: e48c 40bd fea0 bc3c 320b 27bc fc81 253c
00000040: d535 fa3b 7d93 0ebd c284 0c3d 5015 10bd
00000050: 7f27 fbbc 8949 3abc 14d0 94bd 6f3e 453c
00000060: 8003 503d 4b33 e4bc 2f91 ccbc 0791 cbbc
00000070: bff1 95bc 5050 9ebc 1a3f a2bc ea09 31bd
00000080: 2071 f9ba 900a 65bc 347d 3cbc 701f 8bbc
00000090: 9a10 53bd 51a2 65bc c4c5 323d 6048 0fbd
000000a0: 1348 f6bc e375 21bd 47be 073d b82f 933c
000000b0: 1e41 03bd 1edd c2bb 2f8d 773c e2f7 c03c
000000c0: 6d14 463c 93bb a23c ba3f 04bd 3b83 50bd
000000d0: 2950 493c 1ba4 7c3a d400 84bc f414 b6bc
000000e0: d527 a5bc edd9 8abd b06c 31bc fded 80bd
000000f0: e461 42bd 04d5 323c 6fa0 b93b 561c 22bd
00000100: f1b2 94bc a642 0abc e4fa f73c d49a 4cbd
00000110: b0ec 48bd 82aa 25bd bd1a 46bd 4790 e83b
00000120: 50ec 1a3d 0e90 1e3d 429f 3a3d 584c 60bb
00000130: 04f6 48bd 1af6 55bd 8d27 24bd 3d2c a03c
00000140: 2397 083c deb6 51bd 60f0 043d 94d3 4ebc
00000150: 961f 573b 01f8 29bc b7e3 1a3d e744 d0bc
00000160: 85c1 c93c b22b 73bd d5c6 25bd 1d8d f33a
00000170: bb5e ecbc dfb3 36bd 43d8 46bd a8bf b63c
00000180: 3abb 83bc ba1d 833c 703c e7ba 2e5a 7b3c
00000190: 4947 da3b b4a0 39bd 7927 a5bc 6044 3fbd
000001a0: 0b5e 903c 1b62 8bbc 84d5 bdbc 1145 01bd
000001b0: b83f 64bd 09db 3a3c 07ef 91bd 1cb7 a43c
000001c0: 3a6b e63b f6ea 42bc 7db3 7fbd 3daa 6abd
000001d0: 0811 5dbd 2af4 8fbc 50a2 27bd c8a4 143c
000001e0: b994 3e3c bbf0 893c 0ee7 833a 787e 8bbb
000001f0: 52d7 be3c 314c 0cbc 71f9 bb3c cc65 5bbd
00000200: 70c7 253d 451c 833c a88d 2abc 27a7 62bc
00000210: ff56 ed3c a432 a93c a5c5 78bc 4706 3ebd
00000220: 5b68 1abd 0227 a4bc 1ed6 4ebd 8dfb 20bc
00000230: 832e 72bd 7188 16b8 298c 8cba d01a 45bd
00000240: 410f c93c 59fc 91bc f519 24bd b8d3 58bd
00000250: c5eb bf3c 0ab2 823c 7059 da3c c48b bdba
00000260: 3f30 433d 7847 cebc 5a91 92ba 57da 19bd
00000270: b46e abbc de4b 683c 7896 c13c e8f4 8fbd
00000280: 51c5 d93c c488 843b 5aa1 9b3b a3e7 96bd
00000290: f068 94bd 5e4c 29bc 41b2 97bd e392 89bd
000002a0: b2e1 25bd 19b0 a4bc b08b 943c a99f 98bb
000002b0: e816 41bd ba05 433d fe2f c5bc 497a c13c
000002c0: 4aa5 6dbd 3062 a13b 6c94 1d3d a9a5 ac3c
000002d0: 216d 0fbc a244 c8bc f7e2 cc3b 35a6 d3bc
000002e0: ac06 6cbd ec3a 5fbd b1a4 c2bc d647 5f3c
000002f0: 0386 39bd aade 213d 5034 cb3c 75c6 c13c
00000300: c4a6 4cbd 43f3 f3bc e16a 353c fcd5 8b3c
00000310: 5b9e ad3c 8cec 25bd 4958 35bd 7714 773c
00000320: 8a33 a138 45cc 133c e7bb 92bc 4c04 57bd
00000330: 287c 5abb f7ab 40bc d870 a2bd f411 9ebd
00000340: 4845 babc 0df7 04bc 9edd 99bc cb77 02bd
00000350: e06f d3bc de05 c8bc d40a 84bc ad8f 0abd
00000360: cb72 6b3c 3571 2a3d 8429 95bc 4504 15bd
00000370: ef26 83bd b6b3 34bd 54f8 0b3b 00c9 36bd
00000380: a87d 0b3b ec52 1dbd 1412 48bd a988 3a3c
00000390: 7b5d 60bd 9a0d 0ebd 0bdd 4bbd a294 8dbd
000003a0: a9be 78bd 1b6e 0dbd b3f1 96bd ee77 50bd
000003b0: 94b7 5cbd 15dc 1cbd c198 263c 98ee 8d3a
000003c0: 8fd4 27bd 3d60 6e3b 8c6d b53c 477e b93b
000003d0: 0cbc 283c 59c3 2fbd c6eb 22bc 5af1 2939
000003e0: fcfb 353c f744 043c c898 c3bb b2bc 5ebd
000003f0: eb8b 0abd 6318 8b3c a801 ff3c f7a4 2b3d

fc2.bias f4 [300]
-0.042341985 -0.23833619 -0.11216574 -0.061915427 -0.08026539 -0.02917411 0.007536482 -0.089254886
-0.12178265 -0.6351151 -0.25780076 -0.05039552 -0.043869227 0.04911168 -0.14897318 -0.04465664
-0.08227017 -0.051520243 0.91211385 0.0005484465 0.066689424 -0.6013859 -0.4510501 -0.16420756
-0.002412625 -0.059526786 -0.016520334 -0.03064101 0.41431963 -0.019757649 -0.10262219 -0.26238698
-0.041778784 -0.046337206 -0.089252196 -0.05421783 -0.14323968 -0.052855674 -0.030966787 -0.041535113
0.114958204 0.4433316 -0.03025631 -0.032107603 -0.38104418 -0.092451595 -0.06962763 0.57554513
-0.09231136 -0.120728515 0.026806185 0.6326589 0.4784497 -0.14851563 -0.7312551 -0.041961532
-0.03383142 -0.06373164 0.09497872 -0.052395634 -0.04040784 0.973554 0.22515215 -0.021224687
0.047623523 -0.057830554 -0.07940539 -0.13276255 0.32300365 0.0095703285 -0.13557333 -0.25378245
-0.11733112 0.016894775 0.24346063 -0.039906647 0.008827423 -0.5016746 -0.28196317 -0.032049395
0.0051713362 -0.5129156 0.4429077 0.18546797 -0.053627856 -0.0401963 -0.07332193 -0.09474362
-0.095851734 -0.052325826 -0.058306642 -0.043559685 -0.18884134 -0.10464264 0.055009533 0.029532809
-0.34316045 -0.06589923 -0.2184366 -0.03179218 -0.21273191 -0.05308153 -0.19476373 -0.015729869
-0.03348689 -0.34678307 0.002107238 0.05236059 -0.7228323 -0.039286252 -0.016175956 -0.019354375
0.2299603 -0.053745195 -0.08841444 -0.21355894 -0.046136163 1.1992433 0.3314415 -0.48788303
-0.0034211215 -0.5489031 -0.31482673 0.08315793 -0.08004916 -0.22227585 -0.29952148 0.05275939
0.12146658 0.004276166 -0.11414037 -0.043307737 -0.24471435 -0.03364737 -0.15021521 -0.037328426
0.03660763 -0.10025946 -0.11207218 -0.096230544 -0.031016601 -0.05722162 -0.032106306 -0.002247488
-0.64566517 -0.027023403 -0.03354109 -0.026255647 -0.06088849 0.029095525 -0.14441872 -0.019797226
-0.16382116 -0.28797203 -0.4371732 -0.05061401 -0.5767921 -0.2444301 -0.0053816005 -0.06614129
-0.022549987 -0.058817275 -0.038199916 -0.0067175245 -0.8162953 -0.08440345 -0.106851235 -0.019780124
-0.09631142 -0.2579359 -0.14085954 0.13414025 -0.0113733895 0.017111607 -0.7691594 0.06373225
-0.026340894 0.73421293 -0.11344163 -0.0637174 -0.06808673 -0.0847168 -0.056822494 -0.0968038
-0.03028272 -0.041874986 -0.5650482 -0.5413313 0.046878908 -0.08147449 -0.19496891 -0.010378052
-0.14030899 -0.06143926 -0.9325903 -0.014518467 -0.08853275 -0.13576111 -0.04138892 -0.16030234
-0.019690838 0.20907557 -0.022829175 0.053982716 -0.03940024 -0.23034517 -0.10777192 -0.061226755
-0.061993398 0.13624352 -0.012319627 -0.05485169 -0.09236561 -0.113798276 0.8058772 -0.07198162
-0.042494398 -0.2208183 -0.016707603 -0.032597 0.0013806941 -0.10265175 -0.085990556 -0.036273513
-0.048937153 -0.039788824 -0.14874053 0.14705074 -0.08404073 -0.085821755 0.27224374 -0.23780423
-0.15882516 -0.040599797 -0.047868017 0.64112365 -0.31127843 -0.07731846 -0.06540848 0.33596188
-0.1144395 -0.3923662 -0.14372873 -0.04794818 -0.26066938 0.0047097416 -0.31342536 -0.35039487
-0.059462555 -0.7662854 -0.0775407 -0.011872995 -0.18125376 -0.105596095 -0.37926307 -0.058270507
00000000: ca6e 2dbd 670e 74be 27b7 e5bd 089b 7dbd
00000010: 2e62 a4bd 8bfe eebc 98f4 f63b 44cb b6bd
00000020: 2f69 f9bd e796 22bf 76fe 83be 886b 4ebd
00000030: 38b0 33bd 5429 493d 6d8c 18be e2e9 36bd
00000040: 437d a8bd e406 53bd 4b80 693f 9fc5 0f3a
00000050: 7794 883d 6df4 19bf 0af0 e6be 0726 28be
00000060: 211d 1ebb 5cd2 73bd a755 87bc db02 fbbc
00000070: b421 d43e cbda a1bc 952b d2bd 9657 86be
00000080: 3b20 2bbd 15cc 3dbd dbc9 b6bd 8413 5ebd
00000090: 6cad 12be 317f 58bd 0fae fdbc b920 2abd
000000a0: 356f eb3d 5cfc e23e 15dc f7bc 4383 03bd
000000b0: 3918 c3be 4357 bdbd ee98 8ebd ed56 133f
000000c0: bd0d bdbd 8340 f7bd a598 db3c eff5 213f
000000d0: 5cf7 f43e 7b14 18be 8933 3bbf dbdf 2bbd
000000e0: d192 0abd bc85 82bd 3484 c23d ce9c 56bd
000000f0: b182 25bd d63a 793f 498e 663e 65df adbc
00000100: e210 433d bbdf 6cbd 4b9f a2bd e8f2 07be
00000110: bc60 a53e decc 1c3c bcd3 0abe c6ef 81be
00000120: 4c4b f0bd e966 8a3c be4d 793e 2775 23bd
00000130: e5a0 103c bf6d 00bf 7a5d 90be 3a46 03bd
00000140: 5074 a93b 704e 03bf ccc4 e23e 51eb 3d3e
00000150: e2a8 5bbd e0a4 24bd cf29 96bd f108 c2bd
00000160: ea4d c4bd 9b53 56bd f2d2 6ebd a46b 32bd
00000170: a05f 41be e14e d6bd ad51 613d caee f13c
00000180: bab2 afbe 2df6 86bd d8ad 5fbe 8438 02bd
00000190: 65d6 59be 056c 59bd 2570 47be eddb 80bc
000001a0: 8d29 09bd 8d8d b1be 9619 0a3b 0f78 563d
000001b0: 8a0b 39bf 9fea 20bd 7083 84bc 118d 9ebc
000001c0: b67a 6b3e ec23 5cbd a112 b5bd 32af 5abe
000001d0: 46f9 3cbd ce80 993f b3b2 a93e cecb f9be
000001e0: e534 60bb ea84 0cbf f830 a1be b44e aa3d
000001f0: d0f0 a3bd 489c 63be e15a 99be 3b1a 583d
00000200: 78c3 f83d 151f 8c3b 6dc2 e9bd 7463 31bd
00000210: 6696 7abe d3d1 09bd 04d2 19be b1e5 18bd
00000220: e2f1 153d d554 cdbd 1986 e5bd 8514 c5bd
00000230: 8716 febc 3861 6abd e781 03bd 974a 13bb
00000240: 504a 25bf 2f60 ddbc 6262 09bd 1516 d7bc
00000250: 3666 79bd bd59 ee3c 80e2 13be cb2d a2bc
00000260: bcc0 27be 1271 93be 2ad5 dfbe a350 4fbd
00000270: a6a8 13bf e24b 7abe 2358 b0bb 1675 87bd
00000280: c0ba b8bc 62ea 70bd 8477 1cbd ae1e dcbb
00000290: bbf8 50bf b7db acbd d2d4 dabd ed09 a2bc
000002a0: ec3e c5bd 2d10 84be 7c3d 10be 105c 093e
000002b0: 7457 3abc a42d 8c3c a1e7 44bf 0e86 823d
000002c0: dcc8 d7bc 61f5 3b3f 1654 e8bd 457e 82bd
000002d0: 0e71 8bbd 0080 adbd b4be 68bd 1241 c6bd
000002e0: 7813 f8bc 1b85 2bbd 00a7 10bf b094 0abf
000002f0: 1904 403d 19dc a6bd eea5 47be b408 2abc
00000300: 29ad 0fbe bca7 7bbd 3dbe 6ebf ddde 6dbc
00000310: a950 b5bd f604 0bbe 6e87 29bd 4c26 24be
00000320: ae4e a1bc e817 563e 4004 bbbc fb1c 5d3d
00000330: 2562 21bd 9bdf 6bbe 86b7 dcbd e8c8 7abd
00000340: caec 7dbd 6c83 0b3e 43d8 49bc 2aac 60bd
00000350: 2e2a bdbd 120f e9bd f84d 4e3f 196b 93bd
00000360: 9b0e 2ebd 311e 62be 62de 88bc 6f84 05bd
00000370: 68f8 b43a 153b d2bd d11b b0bd 8993 14bd
00000380: 5372 48bd 9bf9 22bd 704f 18be 7894 163e
00000390: 8c1d acbd 51c3 afbd 8863 8b3e f482 73be
000003a0: 10a3 22be f94b 26bd 4111 44bd ae20 243f
000003b0: e35f 9fbe 2459 9ebd e2f4 85bd 3203 ac3e
000003c0: 425f eabd 39e4 c8be a02d 13be 5065 44bd
000003d0: 7576 85be 2d54 9a3b 4a79 a0be f566 b3be
000003e0: 028f 73bd 482b 44bf a9cd 9ebd f386 42bc
000003f0: 969a 39be c442 d8bd c52e c2be 0ead 6ebd

fc3.weight f4 [6, 300]
0.06344103 -0.12686881 0.056296382 0.012965017 0.13086551 0.00998427 0.0080895545 0.14436583
0.014683448 0.20239098 -0.159288 0.05900896 0.06654322 0.43417835 0.03219891 0.07232886
0.24684545 -0.04492055 0.14949319 0.020001756 0.574991 0.094666936 0.10228938 0.21311833
0.3222732 0.05777361 0.0490513 -0.01475375 -0.082147464 0.0454378 0.04813419 0.09073345
-0.0035849768 0.01389 -0.0008825199 -0.038853444 0.013271001 0.0111350315 0.05868404 0.020653829
-0.036189515 -0.22066535 0.038261954 0.06700119 0.33451778 -0.16151343 0.06394025 0.31576142
-0.032637954 0.1328421 0.10003656 0.13215825 -0.43598315 -0.014461185 0.11354427 0.06470244
-0.02331123 0.011435317 0.46616662 0.016227005 0.044463478 0.24273153 0.6366602 0.18568859
0.060576953 -0.04478176 -0.017772788 0.02811714 0.38705355 0.14258225 -0.011182591 0.40702465
0.05635804 0.29774454 0.50297815 0.010705786 0.050349843 -0.12849201 -0.008243686 0.06573488
0.12781544 0.476261 -0.019836426 0.55921084 0.008762624 0.0630443 0.010543266 0.048568435
0.0077230954 0.2732895 -0.033100087 0.05051313 0.11503254 0.06938651 0.6284228 0.09385273
0.17823105 0.047199715 0.36132458 0.010910893 -0.00075276766 -0.0071253683 -0.27515042 -0.04160283
-0.03606419 -0.4645279 0.047177058 0.100316875 -0.02398211 -0.01440629 0.056063015 0.43102658
0.6014407 -0.028342262 0.064253606 0.04121546 -0.015626311 -0.46061993 0.32342395 0.18621182
0.020921817 0.33793032 0.1732453 0.14914873 -0.032591052 -0.26759186 0.2529186 0.3761244
0.21108875 -0.007635323 0.15536901 0.069177285 -0.22768359 -0.002980688 0.0750744 -0.0125882765
0.08436363 -0.01552417 -0.045399215 0.30391395 -0.046028927 -0.03905016 -0.046239417 0.04357966
0.2592724 0.13710736 0.026058676 -0.046715498 -0.038802065 -0.083857 0.11685508 -0.05650101
0.018544756 0.51872295 0.35450262 -0.6183663 -0.1342956 -0.112933606 0.0045943065 -0.04537179
-0.016437026 0.01914855 -0.004784827 -0.041738473 0.35355392 0.0029074424 0.07534892 0.024811493
0.055084877 0.09042736 0.0827335 0.2704877 0.07579524 0.29789427 0.18061043 0.47378787
0.029353222 0.20292091 0.044400863 0.061670188 0.036487553 0.025586998 -0.01816516 0.082078196
-0.0061374484 -0.35621342 0.23878218 0.2745123 0.53062654 -0.044749685 0.21167248 -0.005139055
0.34607786 -0.029153008 -0.004341873 0.06257176 0.19275302 0.061525963 0.07705982 -0.008077198
0.04078722 0.27462152 6.1207465e-05 0.36770797 -0.0089142565 0.00069858757 0.015036569 -0.04298156
-0.04230324 0.7234588 -0.01686587 0.0009139489 0.0306711 0.22665998 0.46936175 0.027438987
0.05600472 0.13175544 0.04165922 0.07976394 -0.028624034 0.19672315 -0.020463528 0.07435008
-0.04484345 -0.008558797 0.053068247 1.0037906 -0.027290413 0.029992184 -0.21857549 -0.07569622
0.10217403 0.059043463 0.40866446 -0.03631567 0.051833946 0.106907785 0.016121306 0.40286022
0.12661523 -0.002907779 0.013014426 -0.007949222 0.096051715 -0.0048489682 0.32339072 -0.0018052922
-0.0079132365 0.042258 -0.022070842 0.014911944 0.16410577 0.02595928 0.12458628 -0.1187214
00000000: 5fed 813d e6e9 01be 0997 663d 396b 543c
00000010: 9c01 063e 1095 233c 0d8a 043c a3d4 133e
00000020: d892 703c 953f 4f3e 651c 23be 61b3 713d
00000030: d047 883d a04c de3e 01e3 033d 2721 943d
00000040: 0ec5 7c3e 9cfe 37bd be14 193e b9da a33c
00000050: 9c32 133f bde0 c13d 187d d13d b13b 5a3e
00000060: fe00 a53e 05a4 6c3d 04ea 483d b6b9 71bc
00000070: ee3c a8bd fd1c 3a3d 5b28 453d 76d2 b93d
00000080: eef1 6abb e292 633c e858 67ba ca24 1fbd
00000090: 9d6e 593c b56f 363c ad5e 703d 3832 a93c
000000a0: 753b 14bd 19f6 61be 91b8 1c3d eb37 893d
000000b0: ea45 ab3e c763 25be 1bf3 823d 7bab a13e
000000c0: 60af 05bd c207 083e f8df cc3d 7e54 073e
000000d0: 2f39 dfbe 9bee 6cbc e689 e83d b682 843d
000000e0: 31f7 bebc 325b 3b3c 64ad ee3e 7fee 843c
000000f0: 561f 363d 9d8e 783e 2afc 223f 2625 3e3e
00000100: 8a1f 783d 146d 37bd 3d98 91bc eb55 e63c
00000110: e22b c63e 1501 123e 3037 37bc 8965 d03e
00000120: b0d7 663d f971 983e 2dc3 003f 5267 2f3c
00000130: a33b 4e3d 6993 03be 8610 07bc 02a0 863d
00000140: 0de2 023e 7bd8 f33e 0080 a2bc 7128 0f3f
00000150: 1c91 0f3c 5f1d 813d aabd 2c3c b2ef 463d
00000160: 0512 fd3b 9aec 8b3e f593 07bd dbe6 4e3d
00000170: 2e96 eb3d 841a 8e3d 51e0 203f dc35 c03d
00000180: 3382 363e 7d54 413d 89ff b83e 9ac3 323c
00000190: 6255 45ba ec7b e9bb 84e0 8cbe bb67 2abd
000001a0: 0bb8 13bd 9ad6 edbe bb3c 413d ef72 cd3d
000001b0: 2176 c4bc 5c08 6cbc 55a2 653d 84af dc3e
000001c0: 05f8 193f 082e e8bc 6597 833d 8bd1 283d
000001d0: c002 80bc 60d6 ebbe d397 a53e 50ae 3e3e
000001e0: 3b64 ab3c 3405 ad3e 3767 313e 72ba 183e
000001f0: 327e 05bd cd01 89be 8c7e 813e 6193 c03e
00000200: a627 583e bb31 fabb 0e19 1f3e d2ac 8d3d
00000210: e325 69be a557 43bb 9bc0 993d 0f3f 4ebc
00000220: d7c6 ac3d 1759 7ebc 87f4 39bd 9c9a 9b3e
00000230: d488 3cbd 10f3 1fbd 8b65 3dbd 9680 323d
00000240: 5abf 843e df65 0c3e 0179 d53c c058 3fbd
00000250: eaee 1ebd 38bd abbd b751 ef3d 9a6d 67bd
00000260: 2ceb 973c 07cb 043f 5e81 b53e 414d 1ebf
00000270: c984 09be bc49 e7bd d68b 963b c5d7 39bd
00000280: f1a6 86bc 6cdd 9c3c 0aca 9cbb f6f5 2abd
00000290: 0505 b53e ca8a 3e3b 8950 9a3d 7941 cb3c
000002a0: aea0 613d fb31 b93d 2e70 a93d 5d7d 8a3e
000002b0: 893a 9b3d 9985 983e f1f1 383e 5394 f23e
000002c0: 2b76 f03c 80ca 4f3e aedd 353d e199 7c3d
000002d0: f973 153d d39b d13c 1acf 94bc 9d18 a83d
000002e0: a61c c9bb 9b61 b6be 5183 743e e08c 8c3e
000002f0: 24d7 073f 724b 37bd acc0 583e 8565 a8bb
00000300: 1e31 b13e 4ad2 eebc 4546 8ebb 9f25 803d
00000310: 0c61 453e a602 7c3d 8ad1 9d3d 3956 04bc
00000320: 8010 273d 319b 8c3e 825c 8038 3844 bc3e
00000330: 1a0d 12bc 6b21 373a f15b 763c 6f0d 30bd
00000340: 2a46 2dbd 9934 393f 4b2a 8abc 1396 6f3a
00000350: f541 fb3c 8e19 683e 2f50 f03e bac7 e03c
00000360: 3565 653d e6ea 063e dca2 2a3d 475b a33d
00000370: f37c eabc cb71 493e 21a3 a7bc db44 983d
00000380: c4ad 37bd 323a 0cbc 175e 593d 367c 803f
00000390: 2590 dfbc 2bb2 f53c 41d2 5fbe 9f06 9bbd
000003a0: 9e40 d13d 8fd7 713d 783c d13e bdbf 14bd
000003b0: d54f 543d 78f2 da3d d410 843c b243 ce3e
000003c0: 6ca7 013e 7090 3ebb 763a 553c 743d 02bc
000003d0: c3b6 c43d 18e4 9ebb 7893 a53e 8e9f ecba
000003e0: 85a6 01bc b916 2d3d e9cd b4bc 3a51 743c
000003f0: 580b 283e 8ea8 d43c 1727 ff3d 3524 f3bd

fc3.bias f4 [6]
-0.24686748 -0.50074965 -0.004049593 0.3397303 0.33303228 0.21825054
00000000: d4ca 7cbe 2131 00bf 73b2 84bb 21f1 ad3e
00000010: 3583 aa3e 127d 5f3e
