porject/models/critic.pth (torch, 523070 bytes, 5 tensors)

fc1.weight f4 [400, 23]
-1.158287 -3.2260585 -0.5755101 0.7253166 0.28564095 0.9436508 0.19138868 0.58989614
-0.24089147 -0.10031739 0.52523255 -0.083434485 0.08743424 -0.024172379 -0.05584142 -0.012957881
-0.0488942 0.2623872 0.064711854 0.0142696565 0.060176395 0.20122173 0.6606707 0.71302134
-2.3017967 -0.20900798 -1.4938121 0.5722804 0.10649107 -0.18358564 -0.06146139 -0.27586502
0.56377053 0.3672464 0.17715651 0.21801047 0.032784127 0.06518355 0.036335077 0.030255651
0.61249936 0.49306127 0.39785218 -0.07451374 0.7523807 -0.005225954 0.20186935 0.008758463
-0.6777436 0.19532296 0.3194226 -0.2450937 -0.1775927 -0.5420675 0.09829405 -0.117375456
0.0015264401 -0.095087625 -0.016315699 -0.046546347 -0.0039371094 0.040671945 0.007069358 -0.30103248
-0.02825342 0.27960962 0.14018315 -0.16398998 -0.074453354 -0.14889573 0.2491597 -0.022227364
0.30088717 -0.03430474 -0.6406448 0.048537284 0.58013827 0.29630157 -0.21211025 -0.16530928
-0.07590314 -0.007936092 -0.0333779 -0.03894141 -0.016226191 -0.055570573 -0.5190459 -0.16592038
0.17053168 0.06687376 -0.030437995 0.108739756 -0.1054633 -0.17119904 -1.3892347 0.43313897
0.12230659 -0.1812172 0.28451377 0.5254953 -0.2233876 0.5137937 0.3648678 0.106360875
0.10821947 0.027211232 -0.016683523 -0.03546941 0.0006862066 -0.518637 0.41917774 -0.22032131
-0.5882825 0.09983874 0.29621533 0.29958254 0.03497339 0.2761873 0.49582136 -0.6132948
0.23058726 -0.74399585 0.06962871 -0.22647393 0.08591617 -0.035615392 0.059835266 0.07093248
0.0028089995 -0.07203857 -0.035767574 -0.017580811 -0.13023394 -0.054227185 -0.2696347 -0.1280408
-0.7948375 0.6038463 5.6744018 -0.45853293 -0.8654677 -0.7263453 -0.48078486 0.6786556
1.1087759 0.0595023 -0.008709095 0.48402187 -0.05521874 -0.049210873 0.014996265 0.00066099246
0.08668379 0.077927314 0.04220154 -0.67913103 -0.22989587 0.08781681 -0.30884516 -0.20315048
0.065506555 0.35218024 -0.7825659 -0.75459146 0.1585461 0.7927817 -0.6435978 -0.34052333
-0.2136856 -0.4943757 -0.5210412 0.121666595 0.061679505 -0.06618229 -0.05418216 -0.11357893
0.03315673 0.023056597 0.20702562 -0.19055004 -0.28900608 0.042152315 -0.13052809 0.044500705
0.121685304 -0.87401605 1.073152 -0.32869336 -0.47769412 0.8422113 -1.8431255 -0.25958633
-0.31101063 0.008635007 -0.1409224 -0.122053504 0.016618242 -0.03632862 0.13349225 -0.038069732
-0.028729877 -0.9249474 0.00847938 -0.32081404 -1.3375871 0.15333223 -0.23102988 0.89918464
1.6401224 0.03571913 0.26255634 0.06423448 0.4913784 -0.5490026 -0.25590566 0.086778045
-0.9614376 -0.22904782 -0.08238166 0.05655156 0.006964332 -0.025683751 -0.03679975 -0.03230636
-0.21653189 0.16685171 0.010760832 0.34892738 0.2813146 0.25418952 -0.16970496 -0.29444137
-0.2691729 -0.73389775 0.474244 -0.44343093 0.30095556 0.099298134 0.3891534 0.09285824
0.017909242 -0.008890875 0.045967482 -0.059006512 -0.07911037 -0.020905767 -0.04462008 0.08905254
0.015299513 0.011206781 0.24776016 -0.0031728013 -0.1654872 -2.0042188 -0.34092858 -0.6466058
00000000: c042 94bf be77 4ec0 a154 13bf 59ae 393f
00000010: 883f 923e 1993 713f 65fb 433e 6f03 173f
00000020: 41ac 76be 3473 cdbd a475 063f b3df aabd
00000030: b910 b33d 2705 c6bc f9b9 64bd 4b4d 54bc
00000040: 4945 48bd 9d57 863e a687 843d 47cb 693c
00000050: 867b 763d 120d 4e3e b721 293f 9188 363f
00000060: a350 13c0 3006 56be 3c35 bfbf f880 123f
00000070: fd17 da3d e0fd 3bbe f0be 7bbd 2e3e 8dbe
00000080: 4453 103f b807 bc3e 8468 353e 233e 5f3e
00000090: a648 063d f47e 853d 17d4 143d b3da f73c
000000a0: c2cc 1c3f 8772 fc3e 48b3 cb3e a99a 98bd
000000b0: 069c 403f 7b3e abbb d7b6 4e3e a87f 0f3c
000000c0: 9b80 2dbf be02 483e 5c8b a33e d8f9 7abe
000000d0: dcda 35be f0c4 0abf 644e c93d 8b62 f0bd
000000e0: d512 c83a 4dbd c2bd 80a8 85bc 62a7 3ebd
000000f0: de02 81bb a097 263d 13a6 e73b ee20 9abe
00000100: b773 e7bc fe28 8f3e 2c8c 0f3e fdec 27be
00000110: 007b 98bd 1f78 18be b823 7f3e 2916 b6bc
00000120: e20d 9a3e 2183 0cbd 4c01 24bf 08cf 463d
00000130: f183 143f d7b4 973e 6e33 59be d646 29be
00000140: 1b73 9bbd 6206 02bc 44b7 08bd 0781 1fbd
00000150: caec 84bc f89d 63bd 31e0 04bf 08e7 29be
00000160: db9f 2e3e 1cf5 883d 1a59 f9bc f3b2 de3d
00000170: 25fd d7bd cd4e 2fbe 71d2 b1bf 64c4 dd3e
00000180: e17b fa3d 0091 39be caab 913e dc86 063f
00000190: b8bf 64be fc87 033f f4cf ba3e bbd3 d93d
000001a0: 2ba2 dd3d 17ea de3c e2ab 88bc 5f48 11bd
000001b0: 8ce2 333a 65c5 04bf 779e d63e e99b 61be
000001c0: af99 16bf 4178 cc3d 89a9 973e e262 993e
000001d0: 4240 0f3d 6c68 8d3e 4cdc fd3e e300 1dbf
000001e0: 111f 6c3e 8376 3ebf 7f99 8e3d c8e8 67be
000001f0: d1f4 af3d 72e1 11bd d315 753d 0c45 913d
00000200: 3117 383b f588 93bd 0581 12bd a205 90bc
00000210: 0c5c 05be 531d 5ebd 8f0d 8abe 211d 03be
00000220: 787a 4bbf ac95 1a3f b394 b540 d4c4 eabe
00000230: 4b8f 5dbf c4f1 39bf 6f29 f6be 60bc 2d3f
00000240: 5eec 8d3f afb8 733d 98b0 0ebc b7d1 f73e
00000250: 0c2d 62bd 5791 49bd e5b2 753c 7446 2d3a
00000260: 4587 b13d 5b98 9f3d 86db 2c3d 88db 2dbf
00000270: d369 6bbe 4dd9 b33d f420 9ebe ae06 50be
00000280: 4d28 863d f850 b43e 3d56 48bf e82c 41bf
00000290: e959 223e bef3 4a3f d3c2 24bf 1359 aebe
000002a0: 66d0 5abe d01e fdbe f562 05bf 562c f93d
000002b0: a6a3 7c3d 958a 87bd 1dee 5dbd 129c e8bd
000002c0: 5acf 073d 30e1 bc3c 86fe 533e 8d1f 43be
000002d0: 9bf8 93be e8a7 2c3d 28a9 05be 5f46 363d
000002e0: 2536 f93d 84bf 5fbf 0b5d 893f 7f4a a8be
000002f0: 5394 f4be 299b 573f 89eb ebbf 80e8 84be
00000300: c93c 9fbe d879 0d3c f64d 10be 30f7 f9bd
00000310: fb22 883c 52cd 14bd 31b2 083e 02ef 1bbd
00000320: eb5a ebbc 5ac9 6cbf 19ed 0a3c bd41 a4be
00000330: 0e36 abbf 2003 1d3e 1993 6cbe f730 663f
00000340: 88ef d13f 394e 123d c96d 863e 5e8d 833d
00000350: f395 fb3e 6f8b 0cbf 1106 83be b0b8 b13d
00000360: c620 76bf 838b 6abe b7b7 a8bd 9ca2 673d
00000370: 0d35 e43b bb66 d2bc 56bb 16bd ac53 04bd
00000380: 89ba 5dbe 2ddb 2a3e 334e 303c 9ca6 b23e
00000390: 7808 903e 2125 823e 23c7 2dbe 05c1 96be
000003a0: 08d1 89be b9e0 3bbf 1cd0 f23e 6109 e3be
000003b0: d916 9a3e d25c cb3d 1d3f c73e 762c be3d
000003c0: 67b6 923c 08ab 11bc 6648 3c3d d0b0 71bd
000003d0: 9e04 a2bd 9242 abbc 8cc3 36bd 2e61 b63d
000003e0: cfaa 7a3c a59c 373c d7b4 7d3e c6ee 4fbb
000003f0: 7a75 29be 1f45 00c0 318e aebe f587 25bf

fc1.bias f4 [400]
-1.5443867 -0.9610874 2.3810809 2.2642207 -1.6006674 1.4712467 -0.32668608 1.0213724
-0.5986749 -1.8137333 2.4055333 -1.3171105 -1.7044325 2.4578652 -1.3121697 -0.124019906
1.6043254 0.9709187 -1.9508345 -1.8564799 1.4561931 1.1618836 2.4175248 2.3095055
0.8911221 1.6961248 1.355845 -1.8582269 -1.5432277 0.19176525 1.2730166 -1.4060231
0.28458306 -1.347237 2.4523382 -0.74486136 -1.6498908 2.4440916 -1.4324653 -0.62452346
-1.2196482 -1.640276 0.9567591 -1.2810899 0.8125965 1.9290777 -1.9392501 -1.6575545
-1.704913 1.9864717 -0.52733165 -1.0054393 -1.7189343 1.4693439 1.9546956 -1.9462578
-0.34419438 -1.7848818 -0.829541 -0.6397224 -1.9781216 -1.4381628 -1.2508237 -1.3010554
2.3847816 -0.9052659 -1.7383454 0.30785242 -2.0252738 -1.1957287 1.163615 2.1144085
0.90907854 -1.6492144 1.1482266 -1.5932113 -1.4351375 -1.2416557 -0.02540997 -1.4062598
-1.4324701 0.6175655 -1.6040288 -1.5317482 2.3545535 1.4491806 2.1379287 -1.4089055
-1.5741502 -1.5046144 1.323485 0.71952915 -1.1869369 -1.2270583 -1.5002702 -1.5467283
0.513068 1.8712546 -1.0959247 1.7292944 2.1059475 2.3125012 -2.032519 0.68902504
-1.5996518 1.6238669 2.2370257 0.17161296 2.089529 -0.5458176 -1.5871125 2.0850813
-1.4618479 -0.9331802 2.4780724 -1.4018383 1.2514509 2.539301 2.1065598 -0.8299237
2.0322845 0.82772833 1.6929457 -1.7284154 1.2289402 -0.7145212 -1.271497 0.5164806
-1.0943965 -0.26759604 -0.9927365 -1.629835 0.40803614 2.3059142 1.779062 1.3849038
1.6892612 -1.6248091 -0.21937409 1.6618971 -1.9953318 -0.9254455 -0.8211524 0.37919334
-1.0437043 -1.370745 -0.8388159 1.7309155 2.1662881 2.4163635 -1.4395213 -0.7531505
-1.358713 0.62300694 -1.4384793 -0.727991 -2.3723638 -0.9090385 -1.5036378 -1.7663234
2.3209817 -1.4183178 -1.4370573 -1.7446731 1.607574 0.47107348 -1.163135 -1.8929051
-0.17117286 2.1033967 -1.367511 -1.2034527 -1.748375 -1.6828148 -0.11709548 -1.5850613
-0.6101284 -1.3563635 -1.6311128 0.7077003 -0.69334644 0.018554917 -0.59494185 -1.290713
-1.902091 -1.445022 1.9337249 -0.15951991 -1.3164438 -1.8934608 0.11077738 -0.6359402
1.24299 -1.558808 0.33225968 0.3482289 -1.1429712 -1.3921642 -0.47963616 2.534735
1.0660037 2.315244 -1.7215219 -1.2024361 -1.4126042 2.3588254 -0.33423653 -0.6589354
-1.2987269 0.8801134 -1.3433038 -1.7948215 2.0408502 -1.8172753 -0.545396 0.012164424
-1.8326166 -1.8914893 -1.4892753 -1.8702719 -0.6776604 -1.8075572 1.1428479 0.7958018
-0.35816717 1.9872243 2.286503 -1.5345613 2.519629 -0.89189297 1.6991713 0.80041325
-0.30278048 -0.12386898 0.7187435 -1.5960333 2.2945888 -1.4026127 0.5033668 -1.0195575
-1.4909338 -1.7786443 -1.7383282 0.26213822 -0.8834855 -0.6733337 -1.5457982 -1.6755795
-0.24204457 1.3738827 -1.8683318 -1.5134459 -1.4923027 0.38395405 2.441262 -1.5291336
00000000: 77ae c5bf d309 76bf a163 1840 fee8 1040
00000010: abe2 ccbf d051 bc3f 6643 a7be 55bc 823f
00000020: c242 19bf 6a28 e8bf 42f4 1940 1497 a8bf
00000030: d82a dabf aa4d 1d40 2df5 a7bf 26fe fdbd
00000040: 895a cd3f 218e 783f f2b4 f9bf 22a1 edbf
00000050: 8964 ba3f 9ab8 943f bab8 1a40 f0ce 1340
00000060: 9420 643f 9e1a d93f 548c ad3f 61da edbf
00000070: 7c88 c5bf 1c5e 443e 35f2 a23f 91f8 b3bf
00000080: dfb4 913e 4372 acbf 1cf3 1c40 3caf 3ebf
00000090: 9f2f d3bf ff6b 1c40 065b b7bf c5e0 1fbf
000000a0: 6f1d 9cbf 90f4 d1bf 2aee 743f c1fa a3bf
000000b0: 5306 503f 05ec f63f 5939 f8bf bf2a d4bf
000000c0: 973a dabf b444 fe3f 35ff 06bf 3cb2 80bf
000000d0: 0a06 dcbf 7613 bc3f 7733 fa3f fa1e f9bf
000000e0: 3f3a b0be 0277 e4bf cd5c 54bf d9c4 23bf
000000f0: 1733 fdbf b815 b8bf fe1a a0bf fc88 a6bf
00000100: 43a0 1840 82bf 67bf 1a82 debf d59e 9d3e
00000110: 169e 01c0 a30d 99bf 56f1 943f 7852 0740
00000120: 5fb9 683f 7519 d3bf 17f9 923f 59ee cbbf
00000130: 96b2 b7bf 93ee 9ebf 9228 d0bc 5200 b4bf
00000140: 2e5b b7bf c618 1e3f d150 cdbf 5310 c4bf
00000150: 01b1 1640 c07e b93f d3d3 0840 0457 b4bf
00000160: c17d c9bf 3497 c0bf f567 a93f 1033 383f
00000170: 8ced 97bf 3f10 9dbf db08 c0bf 31fb c5bf
00000180: 6d58 033f 4585 ef3f 4347 8cbf 8559 dd3f
00000190: d8c7 0640 0500 1440 cb14 02c0 f263 303f
000001a0: 64c1 ccbf dfda cf3f 6e2b 0f40 4fbb 2f3e
000001b0: d8ba 0540 b4ba 0bbf 8126 cbbf f971 0540
000001c0: d51d bbbf e6e4 6ebf bd98 1e40 706f b3bf
000001d0: 8b2f a03f e883 2240 e0d1 0640 e175 54bf
000001e0: f310 0240 01e6 533f 72b2 d83f b73c ddbf
000001f0: ea4d 9d3f ddea 36bf 6ac0 a2bf 1338 043f
00000200: 2f15 8cbf 5902 89be fb23 7ebf 6f9e d0bf
00000210: 1dea d03e 1994 1340 4eb8 e33f 8744 b13f
00000220: b639 d83f bff9 cfbf 9aa3 60be 0bb9 d43f
00000230: 0867 ffbf ffe9 6cbf 0b37 52bf a125 c23e
00000240: 1a98 85bf 9274 afbf a4bc 56bf a48e dd3f
00000250: 77a4 0a40 b3a5 1a40 3c42 b8bf 79ce 40bf
00000260: 4fea adbf 627d 1f3f 1720 b8bf 9e5d 3abf
00000270: cfd4 17c0 bfb6 68bf 3477 c0bf e316 e2bf
00000280: f78a 1440 708b b5bf 7ef1 b7bf 7351 dfbf
00000290: fcc4 cd3f 8b30 f13e 9ce1 94bf b74a f2bf
000002a0: f047 2fbe 0d9e 0640 9a0a afbf bd0a 9abf
000002b0: c1ca dfbf 7a66 d7bf c1cf efbd 4ae3 cabf
000002c0: 6031 1cbf 529d adbf 4ec8 d0bf d92b 353f
000002d0: 277f 31bf 7b00 983c 1c4e 18bf 1536 a5bf
000002e0: b877 f3bf 7bf6 b8bf 4c84 f73f 3059 23be
000002f0: 3b81 a8bf ec5c f2bf 40df e23d facc 22bf
00000300: 4c1a 9f3f 0587 c7bf f11d aa3e 0f4b b23e
00000310: e14c 92bf 7032 b2bf df92 f5be 1939 2240
00000320: cf72 883f f52c 1440 d45a dcbf 6de9 99bf
00000330: 37d0 b4bf fff6 1640 0d21 abbe feaf 28bf
00000340: af3c a6bf 1d4f 613f 61f1 abbf b6bc e5bf
00000350: 4a9d 0240 7a9c e8bf 129f 0bbf 4b4d 473c
00000360: 2e93 eabf 521c f2bf 93a0 bebf 1265 efbf
00000370: 277b 2dbf 095e e7bf d748 923f abb9 4b3f
00000380: b061 b7be 5e5d fe3f 1156 1240 816c c4bf
00000390: 9a41 2140 1953 64bf 727e d93f e2e7 4c3f
000003a0: 0b06 9bbe 05af fdbd 93ff 373f d24a ccbf
000003b0: 8bda 1240 d088 b3bf a6dc 003f dc80 82bf
000003c0: ebd6 bebf 9eaa e3bf 8a81 debf fb36 863e
000003d0: 1b2c 62bf 995f 2cbf b7dc c5bf 6479 d6bf
000003e0: 88da 77be 63db af3f 7f25 efbf 98b8 c1bf
000003f0: c603 bfbf a095 c43e a33d 1c40 a6ba c3bf

fc2.weight f4 [300, 400]
0.16532646 -0.4359571 -0.07944188 0.02584964 -0.22737436 -0.029459083 0.0031594445 -0.060021896
-0.08900837 -0.041692022 -0.36962542 -0.044817798 -0.42160293 -0.14512788 -0.11369236 0.026752274
0.103153765 0.005727406 -0.13638012 -0.22383448 0.25971305 0.031975802 -0.3723767 -0.057840955
-0.19720608 0.027653523 -0.009255975 -0.63026065 -0.022054475 0.018440582 0.009150462 0.07463418
-0.25685436 -0.031848263 -0.12970401 -0.46458414 -0.061944354 -0.098792225 -0.082477465 0.27908382
0.020297129 0.13268778 0.00042726222 -0.35134378 -0.08182977 0.023174943 -0.18680122 -0.3056521
-0.1531375 -0.1600047 -0.063063525 -0.6260494 -0.21715598 0.103070304 0.008106224 -0.034506314
0.028271815 -0.0361374 -0.11552031 0.35642573 -0.06400595 -0.08020367 -0.2667502 -0.021689478
-0.055969648 0.019586205 -0.65555626 -0.24062584 -0.118872404 -0.25357234 0.09779869 0.097035766
-0.07421038 -0.050231893 0.024201198 0.13280034 0.069120176 0.12518828 0.06471342 -0.121258944
-0.19946748 -0.09122203 -0.023913229 0.019885633 -0.12410807 0.013864374 -0.102976345 -0.16436975
-0.031944018 -0.010740045 -0.10252281 -0.23997146 -0.06260687 0.1661816 0.08688681 0.11144942
0.0011566175 -0.06355835 0.14583357 -0.23329553 -0.14221177 -0.22988123 -0.019709831 -0.2087369
0.12711546 -0.052828398 -0.02370941 -0.07950483 -0.088197745 0.085750245 0.14356124 -0.07603911
0.29146594 -0.07313774 -0.51943535 -0.112460695 -0.25324515 -0.07959642 -0.018867515 0.0643538
-0.0055329953 -0.010956798 0.03174836 -0.08901497 -0.10103158 0.4014393 -0.072192706 0.011516805
-0.22219938 -0.08380013 -0.017328203 -0.09591551 0.0010599872 -0.066852376 -0.1693169 -0.2019469
-0.0495448 -0.031748194 0.033538926 0.058219776 0.10283371 0.031269923 0.0191775 -0.19656897
-0.14049542 -0.14100032 0.42544547 -0.08580353 -0.12578072 -0.044757973 -0.0650266 0.017625855
0.16955377 0.104663536 0.2138742 -0.15871073 -0.0032918167 0.09869066 0.19101106 -0.12904076
-0.11871448 0.2974091 0.10994215 0.007989962 -0.21620935 -0.2321996 -0.051329345 -0.057087146
-0.5965604 0.038862906 -0.05393778 -0.0064862533 0.019920366 -0.056942604 0.03233349 0.008776545
0.21546294 0.025248632 0.076213986 0.12204575 -0.41786996 0.1248027 0.022152042 -0.12557895
0.034354605 0.014148584 -0.18878609 -0.13585342 -0.38801166 0.0625113 0.02687192 0.045186132
-0.20411222 0.032219663 -0.04490553 -0.056237884 0.14557458 -0.087255135 0.041454677 -0.19265717
0.0064297337 -0.29830894 0.12873067 -0.07721181 0.13492379 -0.16029929 -0.08667043 -0.103250496
0.043173146 -0.26237 0.009777793 0.15773249 0.008850729 0.46474126 0.06784956 -0.15810515
0.041588563 -0.1567102 0.13108861 0.13900125 0.077869 -0.20874658 0.0618717 0.015909364
-0.0060511264 -0.10604029 -0.25777888 -0.10268538 -0.16713326 -0.042302236 -0.053030204 0.23216133
0.1337921 0.045176648 -0.19109485 0.017509878 -0.41568333 -0.049980164 -0.15580364 0.16397275
0.28049567 0.20289357 -0.08789366 -0.005238466 -0.3117379 -0.028143683 0.12317041 -0.1446615
0.0003487748 -0.09517036 -0.089931816 0.00228421 0.21277592 0.10602005 -0.039200597 -0.017419595
00000000: 574b 293e c535 dfbe 6db2 a2bd a0c2 d33c
00000010: d3d4 68be 2d54 f1bc af0e 4f3b 85d9 75bd
00000020: 054a b6bd 41c5 2abd 8b3f bdbe de92 37bd
00000030: 57dc d7be 679c 14be 8ad7 e8bd 9627 db3c
00000040: 4842 d33d f7ac bb3b 3ba7 0bbe de34 65be
00000050: 1cf9 843e 0ff9 023d 29a8 bebe a3ea 6cbd
00000060: 64f0 49be a489 e23c 5fa6 17bc c358 21bf
00000070: 96ab b4bc b410 973c d2eb 153c ced9 983d
00000080: 6a82 83be 5373 02bd 21d1 04be f9dd edbe
00000090: 5db9 7dbd 9453 cabd f2e9 a8bd 13e4 8e3e
000000a0: 2a46 a63c 4edf 073e 2a02 e039 55e3 b3be
000000b0: 5e96 a7bd 61d9 bd3c d248 3fbe 6f7e 9cbe
000000c0: 14d0 1cbe 46d8 23be 7327 81bd c644 20bf
000000d0: 235e 5ebe 8616 d33d f8cf 043c 7e56 0dbd
000000e0: 4b9a e73c cf04 14bd ea95 ecbd 6f7d b63e
000000f0: 8d15 83bd d241 a4bd 7b93 88be 22ae b1bc
00000100: 6e40 65bd 4073 a03c 89d2 27bf 9f66 76be
00000110: 6073 f3bd 3cd4 81be ae4a c83d b0ba c63d
00000120: 9dfb 97bd f5bf 4dbd 9741 c63c d0fc 073e
00000130: e18e 8d3d 5b31 003e 7888 843d 9c56 f8bd
00000140: 3441 4cbe 9ed2 babd ade5 c3bc 32e7 a23c
00000150: 5f2c febd 6627 633c 43e5 d2bd 8b50 28be
00000160: bbd7 02bd 04f7 2fbc 7bf7 d1bd 14bb 75be
00000170: 0838 80bd 822b 2a3e b6f1 b13d 983f e43d
00000180: a599 973a e12a 82bd 6555 153e 06e5 6ebe
00000190: f69f 11be fc65 6bbe 8376 a1bc 20bf 55be
000001a0: 8e2a 023e 9762 58bd 3d3a c2bc 6ed3 a2bd
000001b0: 05a1 b4bd d39d af3d b801 133e 65ba 9bbd
000001c0: 063b 953e 3dc9 95bd b7f9 04bf cb51 e6bd
000001d0: 59a9 81be 7303 a3bd 0c90 9abc edcb 833d
000001e0: 214e b5bb 2484 33bc 910a 023d 7b4d b6bd
000001f0: a5e9 cebd 7489 cd3e c5d9 93bd fbb0 3c3c
00000200: 3c88 63be 679f abbd e0f3 8dbc 5a6f c4bd
00000210: 45ef 8a3a e6e9 88bd 6961 2dbe 2bcb 4ebe
00000220: 7def 4abd 650a 02bd 1d60 093d dc77 6e3d
00000230: 7b9a d23d e414 003d 221a 9d3c 6049 49be
00000240: 08de 0fbe 6362 10be fdd3 d93e c3b9 afbd
00000250: a9cc 00be 2354 37bd ab2c 85bd 1964 903c
00000260: 819f 2d3e d659 d63d d701 5b3e 1185 22be
00000270: 85bb 57bb 541e ca3d 6798 433e 4323 04be
00000280: 9420 f3bd 0146 983e 5a29 e13d 54e8 023c
00000290: fc65 5dbe bbc5 6dbe b83e 52bd 36d4 69bd
000002a0: 2fb8 18bf b62e 1f3d dded 5cbd a38a d4bb
000002b0: 0930 a33c a63c 69bd 1f70 043d 7fcb 0f3c
000002c0: 51a2 5c3e 38d6 ce3c 1416 9c3d 1ff3 f93d
000002d0: 0df3 d5be 8f98 ff3d 3378 b53c c597 00be
000002e0: 6ab7 0c3d 76cf 673c 2451 41be 291d 0bbe
000002f0: 77a9 c6be ed05 803d 8022 dc3c 1815 393d
00000300: cb02 51be c4f8 033d dcee 37bd b259 66bd
00000310: 8111 153e d2b2 b2bd 61cc 293d ec47 45be
00000320: 84b0 d23b f3bb 98be f9d1 033e 3a21 9ebd
00000330: 7629 0a3e 7f25 24be 4480 b1bd ff74 d3bd
00000340: 53d6 303d 5c55 86be 0933 203c a084 213e
00000350: a602 113c 91f2 ed3e b6f4 8a3d 51e6 21be
00000360: c558 2a3d a378 20be 183c 063e 5856 0e3e
00000370: c879 9f3d aac1 55be 2e6d 7d3d 5b54 823c
00000380: 8748 c6bb a72b d9bd 98fb 83be b64c d2bd
00000390: fb24 2bbe 1c45 2dbd 3336 59bd b3bb 6d3e
000003a0: cc00 093e 260b 393d 5eae 43be e070 8f3c
000003b0: 72d4 d4be 00b8 4cbd fd8a 1fbe 79e8 273e
000003c0: 219d 8f3e 55c3 4f3e 9701 b4bd 70a7 abbb
000003d0: 1c9c 9fbe 958d e6bc c540 fc3d 2522 14be
000003e0: c3db b639 ade8 c2bd 2c2e b8bd afb2 153b
000003f0: eee1 593e 0a21 d93d ce90 20bd 8ab3 8ebc

fc2.bias f4 [300]
-0.6181112 0.03295543 2.360922 -1.0511606 -0.038927197 -0.5710611 -0.281488 0.99552464
-0.5120403 -0.3605812 2.4018466 0.049372304 -0.070035025 -0.5170552 -1.1270064 1.4096764
2.390217 -0.5798208 -0.55507815 -0.5661957 2.3237574 0.53243434 0.014955332 -0.037080202
-0.053091235 -0.655149 -0.6617939 -0.019493476 -0.7354726 -0.9152852 0.041691728 0.8428735
-0.009782074 -1.0231694 -0.5272393 -0.0067268284 1.7398322 -0.5945674 0.80153936 1.8167368
0.9778737 -0.2925265 0.026549416 0.032335423 0.0025553487 2.4464748 1.6345983 -0.43110484
-0.50036675 1.6088777 0.0012615994 -0.5953863 -0.019962251 -0.06733831 -0.36943817 2.3542345
-0.6421123 -0.029208712 -0.5495943 -0.08236107 -1.0162759 -0.0032917568 -0.55220103 0.668176
2.2132456 -0.09656932 2.5092914 -0.58594906 -0.7944981 -0.5949393 0.022744145 0.0059881476
1.2599015 1.3033262 -0.014540716 1.0052974 2.4137864 -0.003940588 2.411314 -0.067937836
2.3485122 2.2706041 -0.06429897 1.2433445 1.1734767 -0.5981764 -0.0846504 1.6745709
-0.5331405 -0.6260557 -0.2870861 0.98604494 -0.46967906 -0.033281118 -0.5766387 2.463722
-0.5656095 0.6759451 -0.10061393 -0.6223098 0.016708566 0.029669587 0.68434066 -0.14304022
-0.019394854 0.9409297 0.6377629 -0.5013287 0.023396323 -0.48508084 -0.6439462 2.358392
-0.05535206 0.0047000246 -0.5337029 -0.6632275 -0.036149003 -0.026432823 2.3434434 -0.023514621
-0.77263254 -0.04452734 -0.6041162 -0.023405466 -0.50940764 1.5763986 2.3708744 0.031879984
-1.1822764 -0.8945754 0.74060446 -0.97480047 -0.017504131 -0.5700799 -0.061741345 -0.27169892
0.9629778 2.32529 -1.2665727 0.021084594 2.0521731 0.0072364705 -0.4661414 2.2587745
-0.032904148 1.2607759 -0.6217614 0.03556702 -0.0013029777 -0.41661158 2.3229065 -0.36220014
1.6003989 -1.0819116 -0.08360565 0.59369785 -1.077817 0.95912236 -0.82652724 2.3624039
1.0836825 -0.3708583 0.8804478 1.4246364 -0.039109837 0.5194473 0.7071878 -0.06292327
-0.6324242 -0.03688239 -1.0375369 -0.6736464 2.0653265 -0.046398032 -0.5689674 0.7714669
-1.4457777 -0.0737091 -0.34663337 -0.47717872 0.8159457 0.6877461 -0.8848983 -0.45682985
2.2760637 -1.3257778 -0.058021836 -0.8771358 2.296113 -0.04497672 -0.39768326 0.0058648046
-0.4808101 1.6407739 -0.34339714 0.03623359 -0.6031721 -0.6220436 2.4226298 -0.5361907
-0.06899856 -1.301432 0.00458713 -0.67739993 2.2862594 -0.7921928 -0.02100728 -0.5648379
-0.6460975 -0.6914466 -0.87522167 2.1452482 2.4948084 1.098507 -0.46257997 -0.12866378
-0.5720109 0.022195535 0.8866599 2.3084269 2.3257987 0.74745625 -0.31357414 0.7508
-0.07340148 1.9849224 2.4013016 -0.79004 -0.583171 0.5336359 -0.04356483 -0.6183114
-1.0780356 0.036330923 2.3253472 -0.57233423 -0.046454925 -0.6096991 2.3212042 2.4117818
1.3505406 -0.6726361 0.0048212814 -0.026374998 -0.7928744 0.024258355 -0.55216473 2.3011029
-0.023557195 -0.028540604 -0.48701277 -0.8709763 2.2006178 1.4361339 -0.046870362 2.183841
00000000: 893c 1ebf 46fc 063d 5919 1740 6e8c 86bf
00000010: 2072 1fbd 0f31 12bf 321f 90be b4da 7e3f
00000020: 1315 03bf 199e b8be dbb7 1940 9d3a 4a3d
00000030: 866e 8fbd bb5d 04bf bf41 90bf 4770 b43f
00000040: 51f9 1840 236f 14bf 9a19 0ebf 34f2 10bf
00000050: 71b8 1440 9e4d 083f 3507 753c 69e1 17bd
00000060: 3276 59bd d8b7 27bf 536b 29bf c8b0 9fbc
00000070: ef47 3cbf 2250 6abf f2c4 2a3d 8fc6 573f
00000080: fe44 20bc 37f7 82bf 28f9 06bf ba6c dcbb
00000090: d2b2 de3f 9235 18bf af31 4d3f d58a e83f
000000a0: ee55 7a3f 09c6 95be 297e d93c 2672 043d
000000b0: a377 273b 0b93 1c40 843a d13f c6b9 dcbe
000000c0: 0918 00bf b4ef cd3f 405c a53a 3d6b 18bf
000000d0: e087 a3bc abe8 89bd 0027 bdbe c7ab 1640
000000e0: 7961 24bf 1c47 efbc 36b2 0cbf ecac a8bd
000000f0: 5415 82bf 84ba 57bb 0c5d 0dbf 950d 2b3f
00000100: d1a5 0d40 23c6 c5bd 3b98 2040 c200 16bf
00000110: 3a64 4bbf f14d 18bf ee51 ba3c 3938 c43b
00000120: 7444 a13f 65d3 a63f 2f3c 6ebc 96ad 803f
00000130: 7a7b 1a40 0c20 81bb f852 1a40 fe22 8bbd
00000140: 064e 1640 9451 1140 2eaf 83bd ea25 9f3f
00000150: 7c34 963f 1722 19bf 305d adbd 5758 d63f
00000160: e57b 08bf 3045 20bf f3fc 92be 716d 7c3f
00000170: c679 f0be c851 08bd 989e 13bf 9fad 1d40
00000180: c9cb 10bf bd0a 2d3f ad0e cebd b24f 1fbf
00000190: 67e0 883c a20d f33c f330 2f3f 2379 12be
000001a0: f5e1 9ebc c5e0 703f 6e44 233f 1457 00bf
000001b0: a5a9 bf3c 845c f8be a8d9 24bf e5ef 1640
000001c0: d7b8 62bd aa02 9a3b c1a0 08bf 47c9 29bf
000001d0: fa10 14bd a689 d8bc fafa 1540 bca1 c0bc
000001e0: 3fcb 45bf 4d62 36bd 5ca7 1abf d2bc bfbc
000001f0: 8a68 02bf 6ec7 c93f 68bc 1740 9694 023d
00000200: d554 97bf e502 65bf 4198 3d3f 868c 79bf
00000210: d364 8fbc c2f0 11bf 7ee4 7cbd 1f1c 8bbe
00000220: b785 763f 8dd1 1440 0e1f a2bf 99b9 ac3c
00000230: ce56 0340 ea1f ed3b 16aa eebe c38f 1040
00000240: 80c6 06bd 1b61 a13f c12b 1fbf b9ae 113d
00000250: adc8 aaba 1d4e d5be 80aa 1440 4c72 b9be
00000260: dfd9 cc3f 147c 8abf 7039 abbd 95fc 173f
00000270: e8f5 89bf 0b89 753f 4a97 53bf a031 1740
00000280: 1cb6 8a3f 24e1 bdbe 0765 613f 7c5a b63f
00000290: a331 20bd 80fa 043f 420a 353f eadd 80bd
000002a0: 8de6 21bf fd11 17bd 02ce 84bf 1774 2cbf
000002b0: 4f2e 0440 dd0b 3ebd d9a7 11bf db7e 453f
000002c0: 3e0f b9bf ccf4 96bd ee79 b1be c550 f4be
000002d0: d1e1 503f 2110 303f b288 62bf 9ae5 e9be
000002e0: 07ab 1140 16b3 a9bf 4ea8 6dbd f98b 60bf
000002f0: 84f3 1240 8239 38bd 249d cbbe 8c2d c03b
00000300: be2c f6be e104 d23f c0d1 afbe ac69 143d
00000310: 7d69 1abf 403e 1fbf 5e0c 1b40 cb43 09bf
00000320: 1e4f 8dbd 5395 a6bf a34f 963b 156a 2dbf
00000330: 1352 1240 26cd 4abf 7617 acbc 3799 10bf
00000340: a566 25bf a502 31bf 870e 60bf bf4b 0940
00000350: f1aa 1f40 e19b 8c3f 48d7 ecbe 70c0 03be
00000360: 4e6f 12bf 69d3 b53c 25fc 623f 44bd 1340
00000370: e3d9 1440 4b59 3f3f ca8c a0be 6e34 403f
00000380: 8453 96bd f011 fe3f edae 1940 1040 4abf
00000390: b24a 15bf 5d9c 083f 0971 32bd a849 1ebf
000003a0: 12fd 89bf bccf 143d 7dd2 1440 7f84 12bf
000003b0: 8547 3ebd 3d15 1cbf 9c8e 1440 a25a 1a40
000003c0: 84de ac3f e131 2cbf d7fb 9d3b 6110 d8bc
000003d0: d1f9 4abf 75b9 c63c ab5a 0dbf 4545 1340
000003e0: 05fb c0bc fccd e9bc bd59 f9be 4ef8 5ebf
000003f0: ecd6 0c40 3cd3 b73f 23fb 3fbd 0dc4 0b40

fc3.weight f4 [1, 300]
0.006311 -0.004856632 0.10194794 -0.42947423 0.035401557 -0.097119235 -0.078527145 0.2631382
-0.0033269424 -0.123857744 0.13083233 -0.15202154 0.014576416 -0.02437354 -0.122771464 0.26008177
0.2371048 -0.6686901 -0.10620327 -0.024435773 0.13400878 0.026703957 0.050317742 0.004097428
-0.027271144 -0.35145774 0.12902676 0.04220282 -0.062374536 -0.38419816 -0.036728717 0.9215569
-0.00884844 -0.49227917 -0.06791896 0.0097921705 0.3920384 -0.109104 0.0721421 0.0020605328
0.2187705 -0.49873903 0.0045170123 0.06973893 -0.03538816 0.25979945 0.28459564 -0.25204554
-0.20762734 0.018646749 0.010779474 -0.01752577 -0.019566474 0.0023558708 -0.3378102 0.13647637
-0.09568088 0.006050027 -0.017360924 -0.0062264735 -0.4479249 0.034343656 -0.04273562 0.100432225
0.02925176 -0.03211047 0.27865967 0.009320111 -0.029212646 -0.05192152 0.017354457 -0.018162543
0.01727708 0.007112787 0.0006250569 0.36489144 0.1861004 -0.013924022 0.21797486 -0.027308274
0.111707345 0.042455938 0.043002885 0.04211298 -0.18257539 -0.0018141816 -0.06585843 0.43114603
-0.056063298 -0.46434465 -0.047688946 0.35972738 -0.25128877 0.035794698 -0.11717855 0.23805246
-0.08276378 -0.014530297 -0.038614575 -0.2475402 0.010504437 -0.045806814 0.59115213 0.0071024424
0.03330594 0.033763308 0.09697006 -0.10259467 -0.013676557 0.027119283 -0.034305394 0.1365219
0.00029188095 -0.030102814 -0.04234377 -0.19990087 0.017859777 -0.021382058 0.06740172 -0.07132266
-0.30406258 0.0077661425 -0.12843731 -0.007556034 -0.14572553 0.017290771 0.18917306 0.016424129
-0.39325324 -0.2520362 0.32961002 -0.24201311 0.058970913 -0.12087485 -0.057458535 -0.36701763
-0.13302484 0.065744184 -0.5749208 0.008269125 0.05208594 -0.0088799335 -0.47316873 0.050319582
-0.017629603 0.017170748 -0.08310547 0.024369292 0.014602754 -0.23967695 0.095399655 -0.19651292
0.013036685 -0.1477114 -0.0040918374 0.0187262 -0.41182283 -0.059612215 -0.42225814 0.12077442
0.2271692 -0.13294823 0.24194516 0.046974663 0.04392542 0.27299207 -0.009205954 0.026012639
-0.01858325 0.018843273 -0.08197526 -0.09048987 0.067834586 -0.005015074 -0.12681529 0.05171543
-0.51520026 0.008400188 -0.092519626 -0.22094356 0.3211151 0.005924243 -0.49971038 -0.20632625
0.08252039 -0.5462622 0.002731958 -0.2613213 0.12343804 -0.023139676 -0.5304817 0.030523924
-0.17284033 0.0017753656 -0.24563864 0.0063170083 -0.13513215 0.0017888952 0.18880314 -0.22846
0.007435938 -0.960471 0.015118479 -0.113430955 0.14517629 -0.29163137 0.0022393644 -0.11201313
1.2664045 -0.108148165 0.011517134 0.021391217 0.27881134 0.059904564 -0.18737206 -0.07385155
-0.15740472 0.040789176 -0.02554653 0.14720538 0.15353991 0.1244195 -0.24024388 0.03875963
0.0211437 0.04036521 0.1520793 -0.055898387 -0.254734 -0.0243535 0.027164942 -0.11833781
-0.5096895 0.0009787114 0.113189064 -0.38435906 -0.014413582 -0.07471899 0.13109818 0.15355994
0.048286248 -0.16664055 -0.025445543 -0.121281 -0.09035519 0.26064986 -0.0045699715 0.099950396
-0.03094919 0.024226986 -0.44269618 -0.012620595 0.04407288 0.15647249 0.001373043 0.052931882
00000000: 81cc ce3b 6224 9fbb 15ca d03d 0ce4 dbbe
00000010: 3901 113d 73e6 c6bd d7d2 a0bd 0dba 863e
00000020: d508 5abb 21a9 fdbd e9f8 053e 89ab 1bbe
00000030: ecd1 6e3c 05ab c7bc 9b6f fbbd 7029 853e
00000040: 9acb 723e 462f 2bbf 1a81 d9bd 882d c8bc
00000050: 9939 093e 42c2 da3c fa19 4e3d b843 863b
00000060: bc67 dfbc 45f2 b3be 971f 043e dddc 2c3d
00000070: 717c 7fbd 9fb5 c4be da70 16bd 27eb 6b3f
00000080: 0cf9 10bc 040c fcbe 1819 8bbd 576f 203c
00000090: 42b9 c83e eb71 dfbd 3dbf 933d 010a 073b
000000a0: 6005 603e b95a ffbe 7203 943b 49d3 8e3d
000000b0: 2df3 10bd 6f04 853e 85b6 913e 1d0c 81be
000000c0: 439c 54be 11c1 983c 649c 303c 3492 8fbc
000000d0: df49 a0bc f464 1a3b 75f5 acbe 76c0 0b3e
000000e0: 56f4 c3bd 4e3f c63b 7f38 8ebc 7207 ccbb
000000f0: 6a56 e5be efab 0c3d 8c0b 2fbd 69af cd3d
00000100: 63a1 ef3c 4586 03bd 7bac 8e3e 61b3 183c
00000110: 5c4f efbc a9ab 54bd ef2a 8e3c 9dc9 94bc
00000120: aa88 8d3c 6212 e93b dcda 233a 0dd3 ba3e
00000130: 1a91 3e3e 9521 64bc cd34 5f3e 9ab5 dfbc
00000140: d2c6 e43d 47e6 2d3d cb23 303d a97e 2c3d
00000150: 0bf5 3abe d5c9 edba c9e0 86bd 2cbf dc3e
00000160: a1a2 65bd 95be edbe 7c55 43bd 302e b83e
00000170: eca8 80be 769d 123d 4ffb efbd 06c4 733e
00000180: 0f80 a9bd 7c10 6ebc 512a 1ebd 2e7b 7dbe
00000190: cd1a 2c3c ed9f 3bbd bf55 173f 9bbb e83b
000001a0: cf6b 083d 654b 0a3d 3d98 c63d 281d d2bd
000001b0: a313 60bc 4229 de3c d083 0cbd 66cc 0b3e
000001c0: 9907 9939 2d9a f6bc a970 2dbd d0b2 4cbe
000001d0: ab4e 923c 6d29 afbc ea09 8a3d 9d11 92bd
000001e0: 17ae 9bbe 207b fe3b 1285 03be 9b98 f7bb
000001f0: 1339 15be 60a5 8d3c 95b6 413e e58b 863c
00000200: 7d58 c9be e40a 81be a5c2 a83e 49d2 77be
00000210: 7c8b 713d 3c8d f7bd a459 6bbd bce9 bbbe
00000220: aa37 08be e3a4 863d 022e 13bf 397b 073c
00000230: 1158 553d 247d 11bc 2c43 f2be e81b 4e3d
00000240: f56b 90bc aba9 8c3c 3333 aabd 1ca2 c73c
00000250: 6440 6f3c e06d 75be e560 c33d af3a 49be
00000260: d297 553c a841 17be d214 86bb b067 993c
00000270: 71da d2be f02b 74bd 3832 d8be 9458 f73d
00000280: 0b9f 683e 9523 08be 79c0 773e 8168 403d
00000290: 24eb 333d 9ec5 8b3e 92d4 16bc 7518 d53c
000002a0: e63b 98bc 355d 9a3c a5e2 a7bd c152 b9bd
000002b0: dcec 8a3d 7d55 a4bb dedb 01be 8fd3 533d
000002c0: 2ae4 03bf f1a0 093c ee7a bdbd 073f 62be
000002d0: 3369 a43e 2720 c23b 0ada ffbe 3047 53be
000002e0: 7300 a93d d7d7 0bbf a60a 333b e8cb 85be
000002f0: 15cd fc3d 6b8f bdbc a6cd 07bf 4f0d fa3c
00000300: 0efd 30be 62b3 e83a b288 7bbe e8fe ce3b
00000310: 1560 0abe 5d79 ea3a 9c55 413e 6bf1 69be
00000320: 2ba9 f33b 6de1 75bf 7fb3 773c 7d4e e8bd
00000330: 18a9 143e b550 95be 4dc2 123b 2467 e5bd
00000340: 8b19 a23f c97c ddbd 5cb2 3c3c a23c af3c
00000350: 5cc0 8e3e 7d5e 753d 76de 3fbe 7b3f 97bd
00000360: b42e 21be 8d12 273d f546 d1bc 02bd 163e
00000370: 9139 1d3e a7cf fe3d 7e02 76be 6bc2 1e3d
00000380: 8e35 ad3c fe55 253d adba 1b3e b5f5 64bd
00000390: 7f6c 82be fe80 c7bc 0389 de3c 185b f2bd
000003a0: 037b 02bf 1b48 803a abcf e73d b6ca c4be
000003b0: f226 6cbc 4506 99bd 9a3e 063e d13e 1d3e
000003c0: cdc7 453d d2a3 2abe 2c73 d0bc 2c62 f8bd
000003d0: 240c b9bd e673 853e b3bf 95bb cbb2 cc3d
000003e0: 2889 fdbc ac77 c63c 13a9 e2be 9dc6 4ebc
000003f0: c485 343d 533a 203e aef7 b33a 1acf 583d
